Setting up [LPIPS] perceptual loss: trunk [alex], v[0.1], spatial [off]
Loading model from: C:\Users\aceth\AppData\Local\Programs\Python\Python39\lib\site-packages\lpips\weights\v0.1\alex.pth
===== Use GPU to Test! =====
---------- Networks architecture -------------
Generator:
G_Net(
  (encoder_prePad): ReflectionPad2d((3, 3, 3, 3))
  (encoder_conv1): Conv2d(3, 64, kernel_size=(7, 7), stride=(1, 1))
  (encoder_in1): RN_B(
    (rn): RN_binarylabel(
      (bn_norm): BatchNorm2d(64, eps=1e-05, momentum=0.1, affine=False, track_running_stats=False)
    )
  )
  (encoder_relu1): ReLU(inplace=True)
  (encoder_conv2): Conv2d(64, 128, kernel_size=(4, 4), stride=(2, 2), padding=(1, 1))
  (encoder_in2): RN_B(
    (rn): RN_binarylabel(
      (bn_norm): BatchNorm2d(128, eps=1e-05, momentum=0.1, affine=False, track_running_stats=False)
    )
  )
  (encoder_relu2): ReLU(inplace=True)
  (encoder_conv3): Conv2d(128, 256, kernel_size=(4, 4), stride=(2, 2), padding=(1, 1))
  (encoder_in3): RN_B(
    (rn): RN_binarylabel(
      (bn_norm): BatchNorm2d(256, eps=1e-05, momentum=0.1, affine=False, track_running_stats=False)
    )
  )
  (encoder_relu3): ReLU(inplace=True)
  (middle): Sequential(
    (0): saRN_ResnetBlock(
      (conv_block): Sequential(
        (0): ReflectionPad2d((2, 2, 2, 2))
        (1): Conv2d(256, 256, kernel_size=(3, 3), stride=(1, 1), dilation=(2, 2))
        (2): RN_L(
          (sa): SelfAware_Affine(
            (conv1): Conv2d(2, 1, kernel_size=(7, 7), stride=(1, 1), padding=(3, 3), bias=False)
            (sigmoid): Sigmoid()
            (gamma_conv): Conv2d(1, 1, kernel_size=(7, 7), stride=(1, 1), padding=(3, 3))
            (beta_conv): Conv2d(1, 1, kernel_size=(7, 7), stride=(1, 1), padding=(3, 3))
          )
          (rn): RN_binarylabel(
            (bn_norm): BatchNorm2d(256, eps=1e-05, momentum=0.1, affine=False, track_running_stats=False)
          )
        )
        (3): ReLU(inplace=True)
        (4): ReflectionPad2d((1, 1, 1, 1))
        (5): Conv2d(256, 256, kernel_size=(3, 3), stride=(1, 1))
        (6): RN_L(
          (sa): SelfAware_Affine(
            (conv1): Conv2d(2, 1, kernel_size=(7, 7), stride=(1, 1), padding=(3, 3), bias=False)
            (sigmoid): Sigmoid()
            (gamma_conv): Conv2d(1, 1, kernel_size=(7, 7), stride=(1, 1), padding=(3, 3))
            (beta_conv): Conv2d(1, 1, kernel_size=(7, 7), stride=(1, 1), padding=(3, 3))
          )
          (rn): RN_binarylabel(
            (bn_norm): BatchNorm2d(256, eps=1e-05, momentum=0.1, affine=False, track_running_stats=False)
          )
        )
      )
    )
    (1): saRN_ResnetBlock(
      (conv_block): Sequential(
        (0): ReflectionPad2d((2, 2, 2, 2))
        (1): Conv2d(256, 256, kernel_size=(3, 3), stride=(1, 1), dilation=(2, 2))
        (2): RN_L(
          (sa): SelfAware_Affine(
            (conv1): Conv2d(2, 1, kernel_size=(7, 7), stride=(1, 1), padding=(3, 3), bias=False)
            (sigmoid): Sigmoid()
            (gamma_conv): Conv2d(1, 1, kernel_size=(7, 7), stride=(1, 1), padding=(3, 3))
            (beta_conv): Conv2d(1, 1, kernel_size=(7, 7), stride=(1, 1), padding=(3, 3))
          )
          (rn): RN_binarylabel(
            (bn_norm): BatchNorm2d(256, eps=1e-05, momentum=0.1, affine=False, track_running_stats=False)
          )
        )
        (3): ReLU(inplace=True)
        (4): ReflectionPad2d((1, 1, 1, 1))
        (5): Conv2d(256, 256, kernel_size=(3, 3), stride=(1, 1))
        (6): RN_L(
          (sa): SelfAware_Affine(
            (conv1): Conv2d(2, 1, kernel_size=(7, 7), stride=(1, 1), padding=(3, 3), bias=False)
            (sigmoid): Sigmoid()
            (gamma_conv): Conv2d(1, 1, kernel_size=(7, 7), stride=(1, 1), padding=(3, 3))
            (beta_conv): Conv2d(1, 1, kernel_size=(7, 7), stride=(1, 1), padding=(3, 3))
          )
          (rn): RN_binarylabel(
            (bn_norm): BatchNorm2d(256, eps=1e-05, momentum=0.1, affine=False, track_running_stats=False)
          )
        )
      )
    )
    (2): saRN_ResnetBlock(
      (conv_block): Sequential(
        (0): ReflectionPad2d((2, 2, 2, 2))
        (1): Conv2d(256, 256, kernel_size=(3, 3), stride=(1, 1), dilation=(2, 2))
        (2): RN_L(
          (sa): SelfAware_Affine(
            (conv1): Conv2d(2, 1, kernel_size=(7, 7), stride=(1, 1), padding=(3, 3), bias=False)
            (sigmoid): Sigmoid()
            (gamma_conv): Conv2d(1, 1, kernel_size=(7, 7), stride=(1, 1), padding=(3, 3))
            (beta_conv): Conv2d(1, 1, kernel_size=(7, 7), stride=(1, 1), padding=(3, 3))
          )
          (rn): RN_binarylabel(
            (bn_norm): BatchNorm2d(256, eps=1e-05, momentum=0.1, affine=False, track_running_stats=False)
          )
        )
        (3): ReLU(inplace=True)
        (4): ReflectionPad2d((1, 1, 1, 1))
        (5): Conv2d(256, 256, kernel_size=(3, 3), stride=(1, 1))
        (6): RN_L(
          (sa): SelfAware_Affine(
            (conv1): Conv2d(2, 1, kernel_size=(7, 7), stride=(1, 1), padding=(3, 3), bias=False)
            (sigmoid): Sigmoid()
            (gamma_conv): Conv2d(1, 1, kernel_size=(7, 7), stride=(1, 1), padding=(3, 3))
            (beta_conv): Conv2d(1, 1, kernel_size=(7, 7), stride=(1, 1), padding=(3, 3))
          )
          (rn): RN_binarylabel(
            (bn_norm): BatchNorm2d(256, eps=1e-05, momentum=0.1, affine=False, track_running_stats=False)
          )
        )
      )
    )
    (3): saRN_ResnetBlock(
      (conv_block): Sequential(
        (0): ReflectionPad2d((2, 2, 2, 2))
        (1): Conv2d(256, 256, kernel_size=(3, 3), stride=(1, 1), dilation=(2, 2))
        (2): RN_L(
          (sa): SelfAware_Affine(
            (conv1): Conv2d(2, 1, kernel_size=(7, 7), stride=(1, 1), padding=(3, 3), bias=False)
            (sigmoid): Sigmoid()
            (gamma_conv): Conv2d(1, 1, kernel_size=(7, 7), stride=(1, 1), padding=(3, 3))
            (beta_conv): Conv2d(1, 1, kernel_size=(7, 7), stride=(1, 1), padding=(3, 3))
          )
          (rn): RN_binarylabel(
            (bn_norm): BatchNorm2d(256, eps=1e-05, momentum=0.1, affine=False, track_running_stats=False)
          )
        )
        (3): ReLU(inplace=True)
        (4): ReflectionPad2d((1, 1, 1, 1))
        (5): Conv2d(256, 256, kernel_size=(3, 3), stride=(1, 1))
        (6): RN_L(
          (sa): SelfAware_Affine(
            (conv1): Conv2d(2, 1, kernel_size=(7, 7), stride=(1, 1), padding=(3, 3), bias=False)
            (sigmoid): Sigmoid()
            (gamma_conv): Conv2d(1, 1, kernel_size=(7, 7), stride=(1, 1), padding=(3, 3))
            (beta_conv): Conv2d(1, 1, kernel_size=(7, 7), stride=(1, 1), padding=(3, 3))
          )
          (rn): RN_binarylabel(
            (bn_norm): BatchNorm2d(256, eps=1e-05, momentum=0.1, affine=False, track_running_stats=False)
          )
        )
      )
    )
    (4): saRN_ResnetBlock(
      (conv_block): Sequential(
        (0): ReflectionPad2d((2, 2, 2, 2))
        (1): Conv2d(256, 256, kernel_size=(3, 3), stride=(1, 1), dilation=(2, 2))
        (2): RN_L(
          (sa): SelfAware_Affine(
            (conv1): Conv2d(2, 1, kernel_size=(7, 7), stride=(1, 1), padding=(3, 3), bias=False)
            (sigmoid): Sigmoid()
            (gamma_conv): Conv2d(1, 1, kernel_size=(7, 7), stride=(1, 1), padding=(3, 3))
            (beta_conv): Conv2d(1, 1, kernel_size=(7, 7), stride=(1, 1), padding=(3, 3))
          )
          (rn): RN_binarylabel(
            (bn_norm): BatchNorm2d(256, eps=1e-05, momentum=0.1, affine=False, track_running_stats=False)
          )
        )
        (3): ReLU(inplace=True)
        (4): ReflectionPad2d((1, 1, 1, 1))
        (5): Conv2d(256, 256, kernel_size=(3, 3), stride=(1, 1))
        (6): RN_L(
          (sa): SelfAware_Affine(
            (conv1): Conv2d(2, 1, kernel_size=(7, 7), stride=(1, 1), padding=(3, 3), bias=False)
            (sigmoid): Sigmoid()
            (gamma_conv): Conv2d(1, 1, kernel_size=(7, 7), stride=(1, 1), padding=(3, 3))
            (beta_conv): Conv2d(1, 1, kernel_size=(7, 7), stride=(1, 1), padding=(3, 3))
          )
          (rn): RN_binarylabel(
            (bn_norm): BatchNorm2d(256, eps=1e-05, momentum=0.1, affine=False, track_running_stats=False)
          )
        )
      )
    )
    (5): saRN_ResnetBlock(
      (conv_block): Sequential(
        (0): ReflectionPad2d((2, 2, 2, 2))
        (1): Conv2d(256, 256, kernel_size=(3, 3), stride=(1, 1), dilation=(2, 2))
        (2): RN_L(
          (sa): SelfAware_Affine(
            (conv1): Conv2d(2, 1, kernel_size=(7, 7), stride=(1, 1), padding=(3, 3), bias=False)
            (sigmoid): Sigmoid()
            (gamma_conv): Conv2d(1, 1, kernel_size=(7, 7), stride=(1, 1), padding=(3, 3))
            (beta_conv): Conv2d(1, 1, kernel_size=(7, 7), stride=(1, 1), padding=(3, 3))
          )
          (rn): RN_binarylabel(
            (bn_norm): BatchNorm2d(256, eps=1e-05, momentum=0.1, affine=False, track_running_stats=False)
          )
        )
        (3): ReLU(inplace=True)
        (4): ReflectionPad2d((1, 1, 1, 1))
        (5): Conv2d(256, 256, kernel_size=(3, 3), stride=(1, 1))
        (6): RN_L(
          (sa): SelfAware_Affine(
            (conv1): Conv2d(2, 1, kernel_size=(7, 7), stride=(1, 1), padding=(3, 3), bias=False)
            (sigmoid): Sigmoid()
            (gamma_conv): Conv2d(1, 1, kernel_size=(7, 7), stride=(1, 1), padding=(3, 3))
            (beta_conv): Conv2d(1, 1, kernel_size=(7, 7), stride=(1, 1), padding=(3, 3))
          )
          (rn): RN_binarylabel(
            (bn_norm): BatchNorm2d(256, eps=1e-05, momentum=0.1, affine=False, track_running_stats=False)
          )
        )
      )
    )
    (6): saRN_ResnetBlock(
      (conv_block): Sequential(
        (0): ReflectionPad2d((2, 2, 2, 2))
        (1): Conv2d(256, 256, kernel_size=(3, 3), stride=(1, 1), dilation=(2, 2))
        (2): RN_L(
          (sa): SelfAware_Affine(
            (conv1): Conv2d(2, 1, kernel_size=(7, 7), stride=(1, 1), padding=(3, 3), bias=False)
            (sigmoid): Sigmoid()
            (gamma_conv): Conv2d(1, 1, kernel_size=(7, 7), stride=(1, 1), padding=(3, 3))
            (beta_conv): Conv2d(1, 1, kernel_size=(7, 7), stride=(1, 1), padding=(3, 3))
          )
          (rn): RN_binarylabel(
            (bn_norm): BatchNorm2d(256, eps=1e-05, momentum=0.1, affine=False, track_running_stats=False)
          )
        )
        (3): ReLU(inplace=True)
        (4): ReflectionPad2d((1, 1, 1, 1))
        (5): Conv2d(256, 256, kernel_size=(3, 3), stride=(1, 1))
        (6): RN_L(
          (sa): SelfAware_Affine(
            (conv1): Conv2d(2, 1, kernel_size=(7, 7), stride=(1, 1), padding=(3, 3), bias=False)
            (sigmoid): Sigmoid()
            (gamma_conv): Conv2d(1, 1, kernel_size=(7, 7), stride=(1, 1), padding=(3, 3))
            (beta_conv): Conv2d(1, 1, kernel_size=(7, 7), stride=(1, 1), padding=(3, 3))
          )
          (rn): RN_binarylabel(
            (bn_norm): BatchNorm2d(256, eps=1e-05, momentum=0.1, affine=False, track_running_stats=False)
          )
        )
      )
    )
    (7): saRN_ResnetBlock(
      (conv_block): Sequential(
        (0): ReflectionPad2d((2, 2, 2, 2))
        (1): Conv2d(256, 256, kernel_size=(3, 3), stride=(1, 1), dilation=(2, 2))
        (2): RN_L(
          (sa): SelfAware_Affine(
            (conv1): Conv2d(2, 1, kernel_size=(7, 7), stride=(1, 1), padding=(3, 3), bias=False)
            (sigmoid): Sigmoid()
            (gamma_conv): Conv2d(1, 1, kernel_size=(7, 7), stride=(1, 1), padding=(3, 3))
            (beta_conv): Conv2d(1, 1, kernel_size=(7, 7), stride=(1, 1), padding=(3, 3))
          )
          (rn): RN_binarylabel(
            (bn_norm): BatchNorm2d(256, eps=1e-05, momentum=0.1, affine=False, track_running_stats=False)
          )
        )
        (3): ReLU(inplace=True)
        (4): ReflectionPad2d((1, 1, 1, 1))
        (5): Conv2d(256, 256, kernel_size=(3, 3), stride=(1, 1))
        (6): RN_L(
          (sa): SelfAware_Affine(
            (conv1): Conv2d(2, 1, kernel_size=(7, 7), stride=(1, 1), padding=(3, 3), bias=False)
            (sigmoid): Sigmoid()
            (gamma_conv): Conv2d(1, 1, kernel_size=(7, 7), stride=(1, 1), padding=(3, 3))
            (beta_conv): Conv2d(1, 1, kernel_size=(7, 7), stride=(1, 1), padding=(3, 3))
          )
          (rn): RN_binarylabel(
            (bn_norm): BatchNorm2d(256, eps=1e-05, momentum=0.1, affine=False, track_running_stats=False)
          )
        )
      )
    )
  )
  (decoder): Sequential(
    (0): Conv2d(256, 512, kernel_size=(3, 3), stride=(1, 1), padding=(1, 1))
    (1): PixelShuffle(upscale_factor=2)
    (2): RN_L(
      (sa): SelfAware_Affine(
        (conv1): Conv2d(2, 1, kernel_size=(7, 7), stride=(1, 1), padding=(3, 3), bias=False)
        (sigmoid): Sigmoid()
        (gamma_conv): Conv2d(1, 1, kernel_size=(7, 7), stride=(1, 1), padding=(3, 3))
        (beta_conv): Conv2d(1, 1, kernel_size=(7, 7), stride=(1, 1), padding=(3, 3))
      )
      (rn): RN_binarylabel(
        (bn_norm): BatchNorm2d(128, eps=1e-05, momentum=0.1, affine=False, track_running_stats=False)
      )
    )
    (3): ReLU(inplace=True)
    (4): Conv2d(128, 256, kernel_size=(3, 3), stride=(1, 1), padding=(1, 1))
    (5): PixelShuffle(upscale_factor=2)
    (6): RN_L(
      (sa): SelfAware_Affine(
        (conv1): Conv2d(2, 1, kernel_size=(7, 7), stride=(1, 1), padding=(3, 3), bias=False)
        (sigmoid): Sigmoid()
        (gamma_conv): Conv2d(1, 1, kernel_size=(7, 7), stride=(1, 1), padding=(3, 3))
        (beta_conv): Conv2d(1, 1, kernel_size=(7, 7), stride=(1, 1), padding=(3, 3))
      )
      (rn): RN_binarylabel(
        (bn_norm): BatchNorm2d(64, eps=1e-05, momentum=0.1, affine=False, track_running_stats=False)
      )
    )
    (7): ReLU(inplace=True)
    (8): ReflectionPad2d((3, 3, 3, 3))
    (9): Conv2d(64, 3, kernel_size=(7, 7), stride=(1, 1))
  )
)
Total number of parameters: 11596591
Learnable number of parameters: 11596591
Discriminator:
D_Net(
  (conv1): Sequential(
    (0): Conv2d(3, 64, kernel_size=(4, 4), stride=(2, 2), padding=(1, 1), bias=False)
    (1): LeakyReLU(negative_slope=0.2, inplace=True)
  )
  (conv2): Sequential(
    (0): Conv2d(64, 128, kernel_size=(4, 4), stride=(2, 2), padding=(1, 1), bias=False)
    (1): LeakyReLU(negative_slope=0.2, inplace=True)
  )
  (conv3): Sequential(
    (0): Conv2d(128, 256, kernel_size=(4, 4), stride=(2, 2), padding=(1, 1), bias=False)
    (1): LeakyReLU(negative_slope=0.2, inplace=True)
  )
  (conv4): Sequential(
    (0): Conv2d(256, 512, kernel_size=(4, 4), stride=(1, 1), padding=(1, 1), bias=False)
    (1): LeakyReLU(negative_slope=0.2, inplace=True)
  )
  (conv5): Sequential(
    (0): Conv2d(512, 1, kernel_size=(4, 4), stride=(1, 1), padding=(1, 1), bias=False)
  )
)
Total number of parameters: 2763776
Learnable number of parameters: 2763776
----------------------------------------------
Pre-trained G model is loaded.
===> Loading datasets
Total instance number: 12000
===> Dataset loaded!
Number: 00014  | Average: PSNR: 33.7960  SSIM: 0.9746  LPIPS: 0.0210  L1: 0.0042 | Current batch: 1  PSNR: 33.7960  SSIM: 0.9746  LPIPS: 0.0210  L1: 0.0042
…
